…
/opt/carnd_p3/behavioral/lib/python3.5/site-packages/sklearn/utils/fixes.py:313: FutureWarning: numpy not_equal will not check object identity in the future. The comparison did not return the same result as suggested by the identity (`is`)) and will change.
  _nan_object_mask = _nan_object_array != _nan_object_array
Dataset: size = 21042 shape = (160, 320, 3)
Labels: mean = -0.00788246914096 std = 0.270527822632 straight ratio = 0.21190951430472388
Dataset size after augmentation = 42084
Train size= 33667
Validation size= 8417
_________________________________________________________________
Layer (type)                 Output Shape              Param #
=================================================================
cropping2d_1 (Cropping2D)    (None, 71, 320, 3)        0
_________________________________________________________________
lambda_1 (Lambda)            (None, 66, 200, 3)        0
_________________________________________________________________
lambda_2 (Lambda)            (None, 66, 200, 3)        0
_________________________________________________________________
conv2d_1 (Conv2D)            (None, 31, 98, 24)        1824
_________________________________________________________________
conv2d_2 (Conv2D)            (None, 14, 47, 36)        21636
_________________________________________________________________
conv2d_3 (Conv2D)            (None, 5, 22, 48)         43248
_________________________________________________________________
conv2d_4 (Conv2D)            (None, 3, 20, 64)         27712
_________________________________________________________________
conv2d_5 (Conv2D)            (None, 1, 18, 64)         36928
_________________________________________________________________
flatten_1 (Flatten)          (None, 1152)              0
_________________________________________________________________
dense_1 (Dense)              (None, 100)               115300
_________________________________________________________________
dense_2 (Dense)              (None, 50)                5050
_________________________________________________________________
dense_3 (Dense)              (None, 10)                510
_________________________________________________________________
dense_4 (Dense)              (None, 1)                 11
=================================================================
Total params: 252,219
Trainable params: 252,219
Non-trainable params: 0
_________________________________________________________________
Epoch 1/15
2019-04-17 11:53:22.647496: I tensorflow/core/common_runtime/gpu/gpu_device.cc:1045] Creating TensorFlow device (/gpu:0) -> (device: 0, name: Tesla K80, pci bus id: 0000:00:04.0)
1052/1053 [============================>.] - ETA: 0s - loss: 0.0274Epoch 00001: val_loss improved from inf to 0.01761, saving model to model.h5
…
